…
rary (oneDNN) to use the following CPU instructions in performance-critical operations:  SSE4.2\nTo enable them in other operations, rebuild TensorFlow with the appropriate compiler flags.\n2022-01-15 02:51:52.629970: I tensorflow/compiler/mlir/mlir_graph_optimization_pass.cc:116] None of the MLIR optimization passes are enabled (registered 2)\nModel: \"sequential\"\n_________________________________________________________________\nLayer (type)                 Output Shape              Param #   \n=================================================================\ndense (Dense)                (None, 500)               6500      \n_________________________________________________________________\ndense_1 (Dense)              (None, 500)               250500    \n_________________________________________________________________\ndense_2 (Dense)              (None, 500)               250500    \n_________________________________________________________________\ndense_3 (Dense)              (None, 500)               250500    \n_________________________________________________________________\ndense_4 (Dense)              (None, 500)               250500    \n_________________________________________________________________\ndense_5 (Dense)              (None, 1)                 501       \n=================================================================\nTotal params: 1,009,001\nTrainable params: 1,009,001\nNon-trainable params: 0\n_________________________________________________________________\nEpoch 1/50\n 1/11 [=>............................] - ETA: 2s - loss: 0.6154 - mean_squared_error: 0.6154 - accuracy: 0.0000e+00\b\b\b\b\b\b\b\b\b\b\b\b\b\b\b\b\b\b\b\b\b\b\b\b\b\
…
